Assets/ClassWork_Mar23_AT_(RollerBall)/TFModels/RollerBall.onnx (onnx, 73975 bytes, 7 tensors)

action_model._continuous_distribution.log_sigma f4 [1, 2]
0	0x3b37b723	0.0028032742
1	0xbd4d9e5d	-0.050199855

action_model._continuous_distribution.mu.bias f4 [2]
0	0xbc038fa5	-0.008029853
1	0xbc7f82df	-0.015595167

action_model._continuous_distribution.mu.weight f4 [2, 128]
0	0x3b0c4192	0.0021401388
1	0x3bb1f8d4	0.005431274
2	0xbbb35081	-0.0054722433
3	0x3c8c30db	0.01711314
4	0xbd5dcdd0	-0.054151356
5	0x3c220039	0.009887748
6	0xbc7ba466	-0.01535902
7	0x3d0ec9db	0.034860473
8	0x3d28aa6c	0.041178152
9	0x3c14ba65	0.009077643
10	0x3dbb8eb7	0.0915808
11	0x3b54cbc6	0.0032470091
12	0xbd46ee5f	-0.048567172
13	0xbd90a461	-0.07062603
14	0xbc9dd25e	-0.01926535
15	0x3d27e625	0.040990967
16	0xbc4a1390	-0.012333766
17	0xbd53d359	-0.05171523
18	0x3ce343e4	0.027742334
19	0xbd5daece	-0.054121785
20	0x3b838226	0.0040133176
21	0xbc7eff6e	-0.015563829
22	0x3b191a3a	0.002336158
23	0xbdbecf0a	-0.09316833
24	0x3c8c4f7d	0.017127747
25	0xbd1d7b4f	-0.038447674
26	0xbd8d8681	-0.0691042
27	0x3cbae785	0.022815475
28	0xbcfb4b45	-0.03067554
29	0x3d3be2d0	0.045870602
30	0xbcee9b51	-0.029126795
31	0x3c088e53	0.008334714
32	0xbc2f570e	-0.010701908
33	0xbd20b16d	-0.039231706
34	0x3cd25441	0.025674941
35	0x3d1b5605	0.03792383
36	0x3cb64a80	0.022252321
37	0x3d5716bb	0.05251191
38	0xbd473a6d	-0.048639704
39	0xbd0fdd7d	-0.035123337
40	0x3cd638cd	0.026150132
41	0xbcfeef36	-0.031119924
42	0x3d0e60fc	0.03476046
43	0x3d195550	0.037434876
44	0xbd13948f	-0.03603035
45	0x3d443378	0.047900647
46	0xbd3201df	-0.043458816
47	0xbd69c59b	-0.057073217
48	0x3b42670a	0.0029663467
49	0xbc0b08af	-0.008485957
50	0xbc072922	-0.008249553
51	0xbd302efe	-0.043013565
52	0xbd134d67	-0.03596249
53	0xbd459447	-0.04823711
54	0xbd52b8ef	-0.051445898
55	0x3d7b40b3	0.061341
56	0xbce02b3a	-0.027364362
57	0x3b46d529	0.0030339456
58	0xbd1dd92b	-0.038537186
59	0x3d2e0b70	0.042491376
60	0xbd0d50e8	-0.034500986
61	0xbd6b3cf6	-0.057431184
62	0x3c8c6499	0.017137812
63	0x3d10e9cc	0.035379216
64	0x3d16f445	0.036854047
65	0xbd77714f	-0.060410794
66	0xbd3eabbc	-0.046550497
67	0x3c461bf7	0.012091628
68	0xbd146e94	-0.036238268
69	0x3c78a9db	0.015177215
70	0xbcea872d	-0.02862891
71	0xbc85359b	-0.016260913
72	0xbbd2b230	-0.006429933
73	0xbc9179a4	-0.017758198
74	0x3c763e3f	0.015029489
75	0xbd49b540	-0.04924512
76	0x3cb09088	0.021553293
77	0xbd7683db	-0.06018434
78	0xbca965d6	-0.020678442
79	0xbc7c9f63	-0.01541886
80	0x3cd71b4e	0.026258137
81	0xbc8e136b	-0.017343244
82	0xbd0870aa	-0.03331057
83	0x3d64932f	0.055804428
84	0x3d534b9a	0.05158577
85	0xbd77573f	-0.06038594
86	0xbd2abbb4	-0.041682914
87	0x3bfa404e	0.0076370602
88	0xbd03e5b4	-0.032201484
89	0xbc794de1	-0.015216322
90	0xbd10d917	-0.035363283
91	0x3cb2d409	0.021829622
92	0xbc516627	-0.012780703
93	0x3aca2b81	0.0015424342
94	0xbca44f26	-0.020057272
95	0x3d71afa6	0.059005402
96	0x3c861d33	0.016371345
97	0x3d375d64	0.0447668
98	0xbb6ac1f8	-0.003582118
99	0xbbf2b520	-0.0074068457
100	0x3c6f4314	0.014603395
101	0x3b32cc34	0.002728236
102	0x3c00b6e3	0.007856104
103	0x398f7bf1	0.0002736743
104	0xbcb3fcf9	-0.021971213
105	0xbdb396a8	-0.0876897
106	0x3ccc5214	0.024941482
107	0x3d8352fb	0.06412312
108	0xbac5a4a4	-0.0015078974
109	0xbd711fdb	-0.05886827
110	0x3b7500b5	0.0037384455
111	0xbda298be	-0.079392895
112	0xbd3918a8	-0.04518953
113	0x3db43cd1	0.08800662
114	0x3c754152	0.014969187
115	0x3d8b5473	0.06803217
116	0xbbedc89e	-0.0072565814
117	0x3b574b88	0.0032851417
118	0xbd8c1341	-0.0683961
119	0xbb580914	-0.0032964395
120	0x3d265c4c	0.040615365
121	0xbd53617b	-0.051606636
122	0x3da7be4c	0.08190593
123	0x3cd3b54f	0.02584329
124	0xbc34ef2b	-0.01104335
125	0xbc6af805	-0.014341359
126	0x38fa7fe7	0.000119447526
127	0xbcf62368	-0.03004618
128	0x3dd2b9a4	0.102893144
129	0x3d0db1a8	0.034593254
130	0x3d80a051	0.06280578
131	0xbcd08e0d	-0.02545836
132	0x3c2ed739	0.01067143
133	0x3cc66e38	0.024222478
134	0x3bcb9fa0	0.006214097
135	0xb77076e0	-1.43327925e-05
136	0x3cbfa29a	0.023392964
137	0xbd18a165	-0.037263293
138	0xbcbbb01f	-0.02291113
139	0x3d655b2b	0.055995148
140	0xb9fddf73	-0.00048422403
141	0xbc4751a2	-0.012165459
142	0x3cb5d28c	0.022195123
143	0xbcaf36ea	-0.02138849
144	0xbcd422df	-0.025895534
145	0xbcc87506	-0.024469864
146	0x3cd8a733	0.026446914
147	0xbd2bb513	-0.041920733
148	0x3d828ecc	0.063748926
149	0x3c97ce51	0.018530997
150	0x3d5da491	0.05411202
151	0xbd1339d0	-0.035943806
152	0x3da9b277	0.082859926
153	0x3cbf1dde	0.023329671
154	0x3cb9474d	0.022617007
155	0x3d22f957	0.03978857
156	0x3c3d2e10	0.011546627
157	0x3d61dfe9	0.055145178
158	0x3cdcc0be	0.026947375
159	0xbd9e9d4a	-0.07744844
160	0xbc445167	-0.011982298
161	0x3d617ea1	0.055052403
162	0xbcf2fa50	-0.029660374
163	0x3cce442b	0.02517899
164	0xbc581491	-0.013188497
165	0xbb5b3fcd	-0.0033454776
166	0xbcf08927	-0.029362274
167	0x3d0520f7	0.03250214
168	0xba10d037	-0.00055241905
169	0x3bf6f988	0.0075370707
170	0x3d016909	0.03159431
171	0x3cc5707b	0.024101486
172	0x3c9482c6	0.018128764
173	0xbc020709	-0.007936248
174	0xbc06116b	-0.008182864
175	0x3cbbfbf2	0.022947285
176	0xbce70392	-0.028199945
177	0x3d58c73e	0.052924387
178	0xbcf0ad0f	-0.029379396
179	0xbcaf1665	-0.021372983
180	0xbcf9544b	-0.030435702
181	0xbcfe89fd	-0.031071657
182	0xbdc5b712	-0.096540585
183	0xbde1416e	-0.10998808
184	0x3d827e78	0.06371778
185	0x3cdbdb45	0.026837954
186	0xbd6f6900	-0.058449745
187	0xbdc1a865	-0.09455947
188	0x3d390a01	0.045175556
189	0xbc794d16	-0.015216133
190	0x3c1bd53f	0.009511291
191	0x3d005656	0.031332336
192	0x3d9f5b5b	0.077810965
193	0xbcf1753c	-0.029474847
194	0xbd21d4e9	-0.039509688
195	0xbd4976da	-0.04918561
196	0xbc8bc8d1	-0.01706353
197	0xbd1435d5	-0.03618415
198	0x3d22e2be	0.03976702
199	0xb9dc223a	-0.0004198717
200	0xbc1e95c5	-0.0096792625
201	0x3cf7ddd6	0.030257147
202	0xbc2eacce	-0.010661317
203	0xbc12469e	-0.008927969
204	0x3ccb7865	0.024837682
205	0xba4c3b65	-0.0007790833
206	0x3be09ddc	0.006854756
207	0x3d0dec2f	0.03464907
208	0x3d5e7aa0	0.054316163
209	0x3d92e66b	0.07172855
210	0x3c40a429	0.011757889
211	0xbce3a46d	-0.027788365
212	0x3da01525	0.07816533
213	0x3d250f8f	0.04029804
214	0xbd2074ae	-0.039173774
215	0xbd580970	-0.052743375
216	0x3d22a3a1	0.03970683
217	0x3c3a2836	0.011362126
218	0xbd109dec	-0.035306856
219	0xbc897026	-0.01677711
220	0x3d92cd79	0.07168097
221	0x3d424f0d	0.04743867
222	0x3cf588a9	0.029972391
223	0x3c629fbe	0.013832031
224	0x3d200cc8	0.03907469
225	0xbd6850a5	-0.056717534
226	0x3d5f3774	0.054496244
227	0x3b5120fd	0.0031910532
228	0x3cafa9ec	0.02144333
229	0xbd0bdf36	-0.034148417
230	0x3d9af6b8	0.07566589
231	0x3d3ae698	0.045630068
232	0xbd5dfb31	-0.054194633
233	0xbce78c5d	-0.028265173
234	0x3a4d7b25	0.00078384794
235	0xbd64439f	-0.05572855
236	0xbd6d870d	-0.057990123
237	0x3d519ef4	0.05117698
238	0x3d5e71e3	0.05430783
239	0xbd49f5b2	-0.04930658
240	0x3d0bac5e	0.03409993
241	0x3ceba7ec	0.028766595
242	0xbc9259ea	-0.01786514
243	0x3db2c203	0.08728411
244	0xbc662aa1	-0.014048249
245	0xbd25c22b	-0.040468376
246	0x3c607d16	0.013701698
247	0x3cbea8ce	0.023273852
248	0xbd1122d6	-0.035433613
249	0x3c55842d	0.013032001
250	0xbb40db71	-0.0029427672
251	0xbc3dc505	-0.011582618
252	0xbb31dbb8	-0.002713902
253	0xbd18e604	-0.037328735
254	0xbdd15b46	-0.10222487
255	0xbd75ce93	-0.060011458

network_body.linear_encoder.seq_layers.0.bias f4 [128]
0	0x3ccdca5c	0.025120907
1	0xbae84358	-0.0017720265
2	0x3c499d49	0.012305566
3	0xbbe99d99	-0.007129383
4	0x3b8700bc	0.0041199606
5	0xb9f95200	-0.00047554076
6	0xbb5ae267	-0.0033399106
7	0x3cb7a90d	0.022419477
8	0x3c8130f3	0.015770411
9	0xbc06c813	-0.008226412
10	0x3b1ca2a1	0.0023900645
11	0x3bfa77d0	0.0076436773
12	0xbb2c9846	-0.002633588
13	0xbc10f976	-0.008848539
14	0x3d97bf39	0.0740952
15	0xbd1f3701	-0.038870815
16	0x3d4496c0	0.04799533
17	0x3c0dba51	0.008650378
18	0x3c9762c7	0.018479718
19	0x3c36dbd5	0.0111608105
20	0x3c81d1c2	0.01584709
21	0x3d2eb763	0.04265536
22	0xbc8e0302	-0.017335419
23	0x38259fc3	3.9487855e-05
24	0x3d28b3f4	0.04118724
25	0xbcd41727	-0.025889946
26	0xbc162dcb	-0.009166191
27	0xbcd55c6e	-0.02604505
28	0xbd50b440	-0.05095315
29	0x3bd01e64	0.006351279
30	0xbc497da3	-0.0122980205
31	0xbbd4ef4f	-0.0064982544
32	0xbb2c254a	-0.0026267343
33	0xbcf1ee86	-0.029532682
34	0x3d73f3a6	0.059558533
35	0xbc0d7380	-0.008633494
36	0x3cc9aa73	0.02461741
37	0x3c8cfba6	0.01720984
38	0x3b0edd60	0.002179943
39	0xbba40f8d	-0.0050067366
40	0x3d28c7be	0.041206114
41	0x3c4d55ab	0.012532632
42	0x3baea37b	0.005329547
43	0x3d2d0ad3	0.04224665
44	0x3cd50bc8	0.026006594
45	0x3cd56b3f	0.026052115
46	0x3d0ffbb6	0.03515216
47	0x3bb431bf	0.0054990943
48	0x3c91222d	0.017716492
49	0x3ca33d34	0.019926645
50	0x3c3a49ea	0.011370162
51	0x3d64d397	0.05586585
52	0x3da1fd9a	0.07909699
53	0x3d4b4ea8	0.04963556
54	0x3b851b04	0.0040620584
55	0x3cddabf3	0.02705953
56	0x3d7542db	0.05987821
57	0x3d52bea5	0.051451344
58	0xbcc3a07e	-0.02388024
59	0x3c82f9bf	0.015988229
60	0xbc1b1ae3	-0.0094668595
61	0x3d256ec6	0.040388845
62	0xbca5349b	-0.020166686
63	0xbd26761a	-0.040639974
64	0xbd3a8705	-0.04553892
65	0x3cd0527d	0.025429958
66	0xbc9bfe15	-0.019042054
67	0x3ce80e1c	0.02832704
68	0x3d389981	0.045068268
69	0x3c5bf2c5	0.01342458
70	0xbc1f23ad	-0.009713096
71	0xbdb680d4	-0.08911291
72	0x3ceca2a6	0.02888615
73	0x3cfec2b4	0.031098701
74	0x3d0a3820	0.03374493
75	0x3b1feebd	0.0024403774
76	0x3c5d4e0b	0.013507376
77	0x3cb14b00	0.021642208
78	0x3da2a235	0.07941095
79	0x3cbd7ec9	0.023131745
80	0x3c5b76a7	0.013394988
81	0x3ca4e3cf	0.020128159
82	0x3d8668cf	0.065629594
83	0x3cc6a42e	0.024248209
84	0x3d369c99	0.044582937
85	0x3c02f05f	0.007991879
86	0x3cdcc6c8	0.026950255
87	0x3cd07aba	0.025449146
88	0x3d1439b3	0.03618784
89	0x3c9a2445	0.018816123
90	0xbd4e8cee	-0.05042737
91	0x3ceab293	0.028649604
92	0x3c59f7c0	0.013303697
93	0xbd1d7c3c	-0.038448557
94	0x3b8a92c6	0.0042289225
95	0x3c110d25	0.008853232
96	0xbc22c6df	-0.00993511
97	0xbd32bd79	-0.043637726
98	0x3cb59150	0.022164017
99	0xbc85fb50	-0.016355187
100	0x3c908281	0.017640354
101	0xbb5efe41	-0.003402606
102	0xbc75ecd4	-0.0150100775
103	0x3d8c1532	0.0683998
104	0x3d9a4309	0.07532317
105	0x3cbc1d92	0.022963319
106	0x3baf0b60	0.005341932
107	0x3cc52745	0.024066577
108	0xb9b63673	-0.00034754313
109	0xbb1382ae	-0.002250831
110	0x3d204453	0.03912766
111	0xbc897684	-0.016780145
112	0xbd6af887	-0.05736592
113	0x3cb0229e	0.021500882
114	0x3c57f798	0.01318159
115	0x3cbf5684	0.023356684
116	0xbdb3f709	-0.087873526
117	0x3cab3403	0.020898825
118	0x3cca9711	0.024730237
119	0x3cab383f	0.020900844
120	0x3d384429	0.044986878
121	0x3d2a8070	0.041626394
122	0xbac0846b	-0.0014687901
123	0xbd066ef9	-0.032820676
124	0x3b06d054	0.002057095
125	0x3d198d3f	0.03748822
126	0x3c891358	0.016732857
127	0xbb9b0242	-0.0047304938

network_body.linear_encoder.seq_layers.0.weight f4 [128, 8]
0	0xbe66c066	-0.22534332
1	0xbe2b9423	-0.16755728
2	0xbe9f4382	-0.31106192
3	0x3ea21462	0.31656176
4	0x3e974bed	0.29550114
5	0x3bf25cc3	0.007396312
6	0xbe772718	-0.24136007
7	0x3eb97ace	0.36226505
8	0xbe9fb5ce	-0.31193393
9	0xbf0c70a6	-0.5485939
10	0x3e57f92c	0.21091145
11	0x3d19ff62	0.037597068
12	0x3e9187b1	0.28423837
13	0xbe3d9eed	-0.18517657
14	0x3d49328b	0.049120467
15	0x3dea6d84	0.1144667
16	0x3f3861f2	0.7202445
17	0x3d7e41de	0.062074535
18	0x3f3d64bc	0.73981833
19	0xbe9de293	-0.30836925
20	0x3f27d963	0.6556608
21	0xbe7950bd	-0.24347205
22	0xbe0440ab	-0.12915294
23	0x3dd7a192	0.10528864
24	0xbeff5eea	-0.498771
25	0x3ec43556	0.38321942
26	0x3f0551bd	0.5207785
27	0xbeb5d682	-0.3551522
28	0x3df1d8f9	0.118089624
29	0x3e2ae762	0.16689828
30	0xbd732b0b	-0.05936722
31	0xbe583d87	-0.21117221
32	0x3eba31d1	0.36366132
33	0xbf268bfe	-0.6505736
34	0xbd7d053d	-0.061772574
35	0xbe901471	-0.28140596
36	0x3e84458b	0.25834307
37	0xbeac75fe	-0.3368377
38	0xbe9997b3	-0.2999855
39	0x3f060e3a	0.5236546
40	0x3e16e21b	0.1473469
41	0x3eb99269	0.36244515
42	0x3c0b2c4c	0.008494448
43	0xbd83de4a	-0.06438883
44	0x3f0ec933	0.55775756
45	0x3ed0eee9	0.40807274
46	0xbf15760d	-0.58383256
47	0xbe390c35	-0.18071063
48	0x3f07a6b1	0.52988726
49	0xbd8c297b	-0.06843849
50	0x3cf39951	0.029736193
51	0xbec74dee	-0.38926643
52	0xbf0acdb7	-0.54220146
53	0x3bcd6193	0.0062677353
54	0x3ecad0f0	0.39612532
55	0x3eda39a1	0.42622092
56	0x3e764457	0.24049507
57	0xbda2833e	-0.07935189
58	0x3f6c2acd	0.9225281
59	0xbe79647f	-0.24354742
60	0x3e54d898	0.20785749
61	0x3e6a92eb	0.22907607
62	0x3d91896e	0.07106291
63	0xbe6cd664	-0.23128659
64	0x3f155d2e	0.58345306
65	0x3ee48bee	0.44638008
66	0xbeeb276a	-0.45928508
67	0xbecf60ac	-0.40503442
68	0x3ec1d4ad	0.3785757
69	0xbdb03563	-0.08603933
70	0x3f223981	0.63368994
71	0xbef8a51b	-0.48563465
72	0xbf0b18b8	-0.5433459
73	0xbe5bc8ff	-0.21463393
74	0xbdba64ce	-0.09101258
75	0xbebe956a	-0.3722337
76	0xbf32b7a6	-0.69811475
77	0x3d6d54a4	0.057942048
78	0x3eaf2ed3	0.34215412
79	0x3dd7adc7	0.10531192
80	0xbd46b665	-0.04851379
81	0x3cb77c52	0.022398148
82	0xbe1fc68a	-0.1560308
83	0x3e4ee551	0.20204665
84	0x3f33f9f5	0.7030328
85	0x3e86b289	0.26308087
86	0x3eda9d9d	0.42698374
87	0x3ec71a03	0.38887033
88	0x3e446124	0.19177681
89	0xbe4907da	-0.19631901
90	0x3ea67364	0.3250991
91	0xbd223bd8	-0.039607853
92	0x3d42f093	0.04759271
93	0xbec6a95b	-0.38801083
94	0xbdfcc2ad	-0.12341819
95	0xbea733a5	-0.3265659
96	0xbe091db3	-0.13390236
97	0x3de7dba4	0.1132119
98	0x3f125db4	0.5717423
99	0xbdf5e488	-0.120064795
100	0xbe817342	-0.25283247
101	0xbd048550	-0.0323537
102	0xbe93cc78	-0.28866935
103	0xbe852d75	-0.26011243
104	0xbd2f19d4	-0.04274924
105	0x3e331cb1	0.17491414
106	0x3f03ba27	0.5145592
107	0x3da1f746	0.07908492
108	0x3f1fcf33	0.62425536
109	0x3f316871	0.6929999
110	0xbcb662ba	-0.022263873
111	0x3dcd48d5	0.10023657
112	0xbed89e0c	-0.4230808
113	0xbe4c79c4	-0.19968325
114	0xbdc79432	-0.09745063
115	0xbea27bcc	-0.31735075
116	0xbf0370d8	-0.5134406
117	0x3ef48cc9	0.4776366
118	0x3dcbc751	0.09950126
119	0xbf3dff73	-0.7421791
120	0x3ccd9bd4	0.025098719
121	0x3ec49951	0.3839822
122	0xbec48f59	-0.38390616
123	0x3c9b3827	0.018947674
124	0xbe1ddfef	-0.15417455
125	0xbdf78384	-0.120856315
126	0x3edeae79	0.43492487
127	0xbe7ae8fa	-0.24502936
128	0xbeab681a	-0.3347786
129	0x3ef91d31	0.48655084
130	0xbd785e59	-0.060636852
131	0xbe22ee5c	-0.1591124
132	0x3ed42707	0.41436026
133	0x3f376d26	0.7165092
134	0x3e10c7c8	0.1413871
135	0xbf2f436c	-0.6846225
136	0xbe1a7d5c	-0.15086883
137	0x3f46a013	0.77588004
138	0xbdf323b1	-0.11872042
139	0x3eaf345b	0.34219632
140	0xbf1d6a97	-0.6149077
141	0xbccb4126	-0.024811339
142	0xbeb2d25c	-0.34926116
143	0xbccfb204	-0.02535344
144	0xbe96fe25	-0.29490772
145	0x3ec9ce56	0.39415234
146	0xbe6da742	-0.23208335
147	0x3f3922ff	0.72319025
148	0xbf07f9ca	-0.5311552
149	0xbd434e71	-0.04768223
150	0x3ebbb333	0.36660156
151	0x3ebb8d7d	0.36631384
152	0xbf456628	-0.77109003
153	0x3dc6d920	0.09709382
154	0x3ea9e5a7	0.33183023
155	0x3e873acb	0.26412043
156	0x3e42bc40	0.19017124
157	0xbdaeee46	-0.08541541
158	0xbe7b887a	-0.2456378
159	0x3d51f8e0	0.051262736
160	0xbf06fa55	-0.52725726
161	0x3d74b8a1	0.05974639
162	0xbe821c28	-0.25412107
163	0x3ec50222	0.3847819
164	0xbea5c9d4	-0.32380545
165	0x3ec99999	0.39374998
166	0x3dc1c96c	0.09462246
167	0x3ecb5c6f	0.3971896
168	0x3d5f7d33	0.05456276
169	0xbeb0d118	-0.34534526
170	0x3c86392a	0.01638468
171	0xbe9514d3	-0.2911745
172	0x3f0b647d	0.5445021
173	0xbe2f1f8d	-0.1710188
174	0xbeaaf355	-0.33388773
175	0x3f29c171	0.66310793
176	0x3d52125b	0.051287036
177	0xbe5e7a9c	-0.2172646
178	0xbe4eadc6	-0.20183477
179	0x3d974db3	0.07387867
180	0x3dfa8d98	0.12234038
181	0xbe195dbb	-0.14977162
182	0xbefe169e	-0.4962663
183	0x3eb05b17	0.34444496
184	0x3ee14cb0	0.4400382
185	0xbd77ad1b	-0.06046782
186	0xbe650740	-0.22366047
187	0x3ea5c0ac	0.3237356
188	0x3e85d0ef	0.26135966
189	0x3edc6288	0.43043923
190	0xbe2ceee8	-0.1688801
191	0x3ed15de0	0.40891933
192	0x3eb3072e	0.34966415
193	0x3f32c700	0.698349
194	0x3ead8fe5	0.33898845
195	0xbd21215c	-0.039338455
196	0x3e753b5e	0.23948428
197	0xbd484721	-0.04889596
198	0x3ed57dfc	0.4169768
199	0x3ed57d86	0.4169733
200	0xbe8cd5d5	-0.2750689
201	0xbf24a665	-0.643164
202	0xbea70c7a	-0.32626706
203	0xbd823eae	-0.063596115
204	0x3e76b725	0.24093302
205	0xbe8a7e1e	-0.27049345
206	0x3d0ac694	0.033880785
207	0xbecbb859	-0.39789084
208	0xbea45eb7	-0.32103512
209	0x3f05616b	0.52101773
210	0x3f067e96	0.52536905
211	0xbf17e3b7	-0.5933184
212	0x3e3e4044	0.18579203
213	0x3d4e7ea6	0.05041375
214	0x3e6dc073	0.23217945
215	0xbda47771	-0.08030594
216	0xbeab8de4	-0.3350669
217	0xbe378df3	-0.17925243
218	0xbf138803	-0.5762941
219	0x3eb850a2	0.35999018
220	0x3ece929c	0.4034623
221	0x3d5765e4	0.052587405
222	0x3f3a5119	0.72779995
223	0x3dfdc395	0.1239082
224	0xbc85f588	-0.01635243
225	0xbeb37e7c	-0.35057437
226	0xbe67d3f0	-0.22639441
227	0x3d187094	0.037216738
228	0xbec4954f	-0.38395163
229	0x3e3f3660	0.18673086
230	0x3d405f29	0.04696575
231	0x3e16d524	0.14729744
232	0x3e8426f7	0.25810978
233	0x3f4d12f5	0.8010705
234	0xbc6998b7	-0.014257601
235	0x3dbf7556	0.09348552
236	0x3ed2d657	0.41179153
237	0x3ee4c930	0.44684744
238	0xbf06f7a4	-0.5272162
239	0x3eac1e7b	0.33617005
240	0xbf202fb7	-0.6257281
241	0x3ed608bd	0.41803542
242	0xbdaef97d	-0.0854368
243	0x3d87e0d5	0.0663468
244	0xbec26c37	-0.37973186
245	0xbdbe0959	-0.09279127
246	0x3c798716	0.015229961
247	0x3e0b585b	0.13607924
248	0x3e6cb005	0.23114021
249	0x3d0c62ef	0.034274038
250	0xbd762ce8	-0.06010142
251	0x3e9442c9	0.28957203
252	0xbd6455e4	-0.055745974
253	0x3f284589	0.657311
254	0xbdb532af	-0.08847558
255	0xbd4ce922	-0.05002702

network_body.linear_encoder.seq_layers.2.bias f4 [128]
0	0x3b9cf64b	0.0047901026
1	0xbc878e08	-0.016547218
2	0x3c4559b7	0.0120453155
3	0x3a3c6e3f	0.0007188059
4	0x3d609179	0.054826234
5	0xbc0f1594	-0.008733172
6	0xbba6ea67	-0.005093861
7	0xbbdd0a02	-0.006745578
8	0xbb3af648	-0.0028528143
9	0x3cc090f0	0.023506612
10	0x3dab2309	0.08356292
11	0xbc8c73f6	-0.017145138
12	0x3badf6de	0.00530897
13	0x3d06a81c	0.032875165
14	0xbc0e312d	-0.008678717
15	0xbb1d5a64	-0.0024010176
16	0x3c5da8f2	0.013529049
17	0x3ce0736d	0.02739879
18	0xbc58d4df	-0.013234346
19	0x3d06dbd3	0.032924484
20	0x3c929c3b	0.017896762
21	0xbc032877	-0.008005253
22	0x3c3248f6	0.010881653
23	0x3ce7810b	0.028259775
24	0x3d0b8787	0.034064796
25	0x3d1d50c1	0.03840709
26	0x3d143091	0.03617913
27	0x3b2b13dc	0.0026104366
28	0xba1d5f19	-0.00060032454
29	0x3bb3d276	0.0054877354
30	0x3c33fc48	0.0109854415
31	0x3d5aef0c	0.05345063
32	0xbc6134b7	-0.013745478
33	0xbca23079	-0.019798504
34	0xbc2d4a91	-0.01057686
35	0xbc0a9283	-0.008457783
36	0xbc7a0f5a	-0.015262449
37	0x3c6573d1	0.014004664
38	0x3ca80220	0.020508826
39	0x3c76cfa5	0.015064155
40	0x3adcc66c	0.0016843802
41	0x3c5ffe82	0.013671519
42	0x3aa56e1c	0.0012621316
43	0x3ab271b8	0.0013614213
44	0x3cca31c8	0.02468194
45	0x3ccc67f5	0.024951914
46	0x3ccf0f87	0.025275959
47	0x3ce234e2	0.027613107
48	0x3c825972	0.015911791
49	0xbb7f15a0	-0.0038922802
50	0x3ca1e22c	0.019761167
51	0x3cbe2430	0.023210615
52	0x3d7510df	0.059830543
53	0x3c7dd019	0.015491509
54	0x3d43cad2	0.047800846
55	0x3d969b24	0.073538095
56	0x3c86dc7e	0.01646256
57	0xbc9f659e	-0.019457635
58	0x3d335bed	0.04378884
59	0x3d3b49c6	0.045724653
60	0x3d14d186	0.03633263
61	0x3cd77f95	0.026305953
62	0x3c1f04cc	0.0097057335
63	0xbc864072	-0.016388152
64	0x3c6b86e5	0.014375423
65	0x3d2e027f	0.04248285
66	0x3d56585f	0.05233037
67	0x3ca018c8	0.019543067
68	0x3ca636dd	0.020289833
69	0x3ca85b2e	0.02055129
70	0x3cb66905	0.022266874
71	0xbcbfc2a6	-0.023408245
72	0x3c678964	0.014131878
73	0x3c06846d	0.008210284
74	0xbcc23d23	-0.023710793
75	0x3c9029e9	0.01759811
76	0x3c067dfb	0.008208747
77	0x3d4128e5	0.04715814
78	0xbcdfb4c4	-0.027307875
79	0xbba2b747	-0.004965696
80	0x3c93aee7	0.018027736
81	0x3ce2f790	0.027705938
82	0x3c632570	0.013863906
83	0x3ce197fe	0.027538296
84	0x3d26a832	0.040687747
85	0x3d0f77cf	0.035026368
86	0x3d03a753	0.032141995
87	0x3c5b52fd	0.013386485
88	0x3baeb4ce	0.005331612
89	0xbca5db28	-0.020246103
90	0x3cf926ec	0.030414067
91	0x3ccaf004	0.024772651
92	0x3c955275	0.018227795
93	0x3c9c8cf5	0.019110182
94	0xbc1ce949	-0.009577104
95	0x397c9f56	0.0002409195
96	0xbc454165	-0.012039517
97	0x3d6caa68	0.0577797
98	0x3c936aca	0.017995257
99	0x3c316d69	0.010829308
100	0xbc86f738	-0.016475305
101	0x3d0371e1	0.032091025
102	0x3d3a8fda	0.045547344
103	0xb9723f3c	-0.00023102475
104	0x3d065fcf	0.032806214
105	0x3d975400	0.073890686
106	0x3c30d553	0.010793048
107	0x3d3fb9d9	0.046808098
108	0x3cc1aa91	0.023640903
109	0x3d972b39	0.07381291
110	0x3cf8e43c	0.030382268
111	0x3d97f9f0	0.07420719
112	0x3c6ff486	0.014645701
113	0x3d538fd2	0.05165083
114	0xbc8fd78f	-0.017558841
115	0x3d7232a9	0.059130345
116	0x3c15174b	0.009099792
117	0xbab77539	-0.0013996727
118	0x3d48c58b	0.049016517
119	0xbb6e2fbc	-0.003634437
120	0x3d2f1bc7	0.0427511
121	0x3cd56a31	0.026051613
122	0x3d2a1a70	0.04152912
123	0xbcc428b0	-0.023945183
124	0xbcfead28	-0.031088427
125	0x3d079f25	0.033110756
126	0x3d308459	0.043094967
127	0x3d181742	0.037131555

network_body.linear_encoder.seq_layers.2.weight f4 [128, 128]
0	0xbc03bcd3	-0.008040625
1	0xbc835065	-0.016029546
2	0x3dc5c9d7	0.096576385
3	0xbdfa32bb	-0.12216707
4	0xbdb177a3	-0.08665397
5	0xbd155b4f	-0.03646403
6	0xbdfbd8fe	-0.12297247
7	0xbda78a57	-0.08180683
8	0xbc4c98d5	-0.01248761
9	0x3d0b3c48	0.033993036
10	0xbbaa5424	-0.0051980186
11	0x3deb32a8	0.11484271
12	0x3d90f9a2	0.07078864
13	0x3dd67d54	0.10473123
14	0x3dcacc5c	0.0990226
15	0xbc591c85	-0.0132514285
16	0x3d8084ad	0.06275306
17	0xbd1f2e67	-0.038862612
18	0x3e2ff16c	0.17181939
19	0xbd086f0d	-0.03330903
20	0x3ddec3c5	0.10877184
21	0xbb86d086	-0.0041142134
22	0xbd64b305	-0.05583479
23	0x3d1f7e0c	0.038938567
24	0xbc6962f9	-0.014244788
25	0xbcd2b094	-0.025718965
26	0xbcfbfaeb	-0.030759295
27	0xbbf06021	-0.007335678
28	0xbcc517b0	-0.024059147
29	0x3d3b105e	0.045669906
30	0x3bca2ac3	0.0061696484
31	0x3de17d4b	0.11010226
32	0xbe156f7c	-0.14593309
33	0x3df968d2	0.12178196
34	0xbe1c9e27	-0.15294705
35	0xbcd38386	-0.025819551
36	0x3c8b076b	0.01697131
37	0xbc439155	-0.011936505
38	0xbe6cf5e8	-0.23140681
39	0x3dcaef93	0.099089764
40	0x3d75f3c3	0.060046922
41	0xbc9997ed	-0.018749202
42	0x3c357f37	0.011077694
43	0x3d15abf7	0.03654095
44	0x3db016fd	0.08598135
45	0x3d385334	0.045001224
46	0xbd274e9b	-0.04084645
47	0xbcda5fb3	-0.026656961
48	0xbc954254	-0.018220104
49	0x3e8067eb	0.25079283
50	0xbdcabbe2	-0.09899117
51	0x3d3bb8c4	0.045830503
52	0xbccd2a26	-0.025044512
53	0x3d56d1ae	0.05244606
54	0x3c317d62	0.010833116
55	0x3d070a68	0.03296891
56	0xbc4194a8	-0.011815228
57	0xbbb5bca1	-0.005546168
58	0x3d5510c5	0.052017946
59	0x3e2adf40	0.16686726
60	0x3d8c57ee	0.06852709
61	0xbda22e4b	-0.07918986
62	0x3dcaf2b2	0.09909572
63	0xbcfdc493	-0.030977523
64	0xbc54cc22	-0.012988122
65	0x3dd56f2f	0.10421597
66	0xbdfeeddd	-0.124477126
67	0x3bab6401	0.0052304273
68	0x3e5d983f	0.21640109
69	0x3d732d8a	0.0593696
70	0x3d810c2f	0.06301152
71	0x3d0585f9	0.03259847
72	0x3d00d096	0.031448923
73	0x3e09cae0	0.13456297
74	0x3d56b969	0.052422915
75	0xbd9ca3db	-0.076484405
76	0x3c8294ff	0.015940187
77	0xbe131798	-0.14364469
78	0x3bbe7fdc	0.005813582
79	0x3c39eb45	0.0113475965
80	0xbd328723	-0.043585908
81	0xbdb5a9a1	-0.08870245
82	0x3d3e32ce	0.04643517
83	0x3d590b30	0.052989185
84	0xbde84a85	-0.113423385
85	0xbdc49329	-0.09598381
86	0x3dc2e481	0.0951624
87	0x3de85c22	0.11345698
88	0x3dc045e5	0.09388331
89	0x3c52fcd9	0.012877666
90	0xbdee2a4d	-0.11629162
91	0xbd900a7b	-0.07033249
92	0xbcfa430b	-0.030549547
93	0xbcf7e32b	-0.03025969
94	0x3d65690e	0.05600839
95	0x3dd27a6e	0.10277258
96	0xbd202f30	-0.0391075
97	0xbdc33c31	-0.09532965
98	0xbc9946d7	-0.018710537
99	0xbd0ada25	-0.033899445
100	0x3d5d640e	0.054050498
101	0xbe5588fd	-0.20853038
102	0xbd1c297a	-0.038125493
103	0x3ce469a8	0.027882412
104	0x3da3f7e7	0.08006268
105	0x3da7cb6e	0.08193098
106	0x3d91698e	0.07100211
107	0x3ce04551	0.027376803
108	0x3d20389c	0.039116487
109	0xbd4cd3a7	-0.050006535
110	0x3d98b8ec	0.07457146
111	0xbe5c9218	-0.21540105
112	0xbd278f81	-0.04090834
113	0x3d2309be	0.039804213
114	0x3b8f0a51	0.0043652435
115	0x3d126732	0.035742946
116	0xbd7c588d	-0.061607886
117	0xba432904	-0.00074447715
118	0x3c6bfa34	0.014402915
119	0xbda62da5	-0.08114175
120	0x3e09680a	0.13418594
121	0xbc882341	-0.016618373
122	0x3c4a85a7	0.012360967
123	0xbd7b6aaf	-0.06138104
124	0xbdce358b	-0.10068806
125	0x3bf31fd4	0.0074195657
126	0x3d84b2bc	0.064794034
127	0xbd397e37	-0.045286383
128	0xbc4185e4	-0.011811707
129	0xbd986050	-0.07440245
130	0xbe5307df	-0.20608471
131	0x3d4f33d8	0.05058655
132	0xbdb7ea59	-0.08980245
133	0xb99dcc65	-0.0003009766
134	0x3d4dfe4a	0.050291337
135	0x3e0ed22d	0.13947363
136	0xbb416c75	-0.0029514108
137	0x3db1fe30	0.086910605
138	0x3d90b2e5	0.070653714
139	0x3e09838a	0.13429084
140	0x3db1d43e	0.0868306
141	0xbbddf30c	-0.006773358
142	0xbd804f2a	-0.06265099
143	0x3e50d7f9	0.20394887
144	0xbb3f9fd0	-0.0029239543
145	0x3dc3237c	0.095282525
146	0x3e20e7dc	0.15713447
147	0xbdce0fce	-0.10061608
148	0xbcc2e154	-0.023789085
149	0xbe0e8311	-0.13917185
150	0xbe795636	-0.24349293
151	0x3c766e9e	0.015041022
152	0xbd083f0f	-0.033263262
153	0x3d2d6c37	0.04233953
154	0xbe1ad2c3	-0.15119462
155	0xbcfdbdb5	-0.030974248
156	0x3d2e25a4	0.042516366
157	0x3d869248	0.0657087
158	0x3e3b90a8	0.183169
159	0x3da9ea80	0.082966805
160	0xbd9bba78	-0.076039255
161	0x3e217d93	0.15770559
162	0xbe34a3e1	-0.1764064
163	0xbdbf679c	-0.09345934
164	0x3be49906	0.0069762496
165	0x3ce9058e	0.028445031
166	0xbdcc4f65	-0.09976081
167	0x3d3e52ec	0.0464658
168	0xbb41a027	-0.002954492
169	0xbd5a5ed8	-0.053313106
170	0xbd375050	-0.044754326
171	0x3bc23621	0.005926863
172	0xbcf697f6	-0.030101757
173	0x39fa5d00	0.00047753006
174	0x3d957d34	0.07299271
175	0x3cb803ef	0.022462813
176	0xba48447a	-0.00076395983
177	0xbb2ea1cb	-0.002664673
178	0xbdcbde35	-0.09954492
179	0xbd3fe33c	-0.046847567
180	0xbd015518	-0.031575292
181	0x3db09fd3	0.08624234
182	0xbd682a22	-0.056680806
183	0x3dbb2469	0.09137804
184	0xbc5f1081	-0.013614775
185	0xbd8b7ecf	-0.06811296
186	0xbd5a9599	-0.053365324
187	0x3dd834d1	0.10556949
188	0xbdc5da87	-0.096608214
189	0xbd3af66a	-0.045645155
190	0xba614efa	-0.0008594837
191	0xbdc267a3	-0.094924234
192	0x3d020509	0.031743083
193	0xbd3123f1	-0.043247167
194	0xbd9cb003	-0.07650759
195	0xbd30d816	-0.043174826
196	0x3de37ca1	0.111077555
197	0x3b9e319f	0.0048276926
198	0xbda952d1	-0.08267749
199	0x3e12b2d4	0.1432603
200	0xbc260a94	-0.010134358
201	0xbdacee85	-0.084439315
202	0xbcb53e0e	-0.022124317
203	0xbd379e92	-0.04482896
204	0xbdb2fafc	-0.08739278
205	0xbdb2bd81	-0.08727551
206	0x3d33000f	0.043701228
207	0x3d485af6	0.048914872
208	0xbdd9c722	-0.10633685
209	0xbcda5d64	-0.02665586
210	0xbcfd8465	-0.03094692
211	0xbdb9ca90	-0.09071839
212	0xbb5fc1af	-0.0034142544
213	0xbddeb5b8	-0.10874504
214	0x3d9ad60e	0.07560359
215	0xbd0a6ec9	-0.03379706
216	0x3dcd4404	0.100227386
217	0x3e9c9ca2	0.3058825
218	0x3e61806a	0.22021642
219	0xbd29f87e	-0.041496746
220	0x3cfee918	0.031117007
221	0x3d8389ef	0.06422793
222	0xbc997648	-0.018733159
223	0x3d9e1672	0.07719125
224	0xbd064314	-0.032778814
225	0x3d85ee71	0.0653962
226	0xbe4e44a4	-0.20143372
227	0x3c41fa35	0.011839439
228	0xbdd0579a	-0.10172959
229	0x3d07bda2	0.033139832
230	0xbd292340	-0.041293383
231	0xbe68aba9	-0.22721733
232	0xbdb9070e	-0.09034549
233	0xbe431737	-0.19051825
234	0x3c6d77e8	0.01449392
235	0xbc38e129	-0.011284151
236	0xbdad394c	-0.08458194
237	0x3ddfa6c4	0.1092048
238	0x3d51ee93	0.051252913
239	0x3d85e21c	0.065372676
240	0x3dc8fdbd	0.09814022
241	0xbe17a20e	-0.14807913
242	0xbe2e6052	-0.17028931
243	0xbd8cec90	-0.06881058
244	0xbdca9ae1	-0.09892822
245	0xbdd32ec6	-0.10311656
246	0x3d63726c	0.055529043
247	0xbb316c88	-0.0027072746
248	0xbd19cdad	-0.037549663
249	0xbbc7fbea	-0.0061030285
250	0x3c9d8bd0	0.019231707
251	0x3e29541c	0.16535991
252	0x3e0812b1	0.1328838
253	0xbd8ccdc8	-0.06875187
254	0x3d741ba5	0.059596676
255	0xbddbea89	-0.107380934
